checkpoints/model.pth (torch, 401143 bytes, 30 tensors)

fc1.weight f4 [128, 52]
00000000: ebcb ac3c 46e1 da3d dd82 0c3e 78ae 4cbd
00000010: 3352 dd3d a6bc 14bd 1682 dbbd b008 3a3c
00000020: 9594 e8bc c6d7 ec3d 0c03 42bd f69a e1bd
00000030: ff9b e43d 9bcb c93d a00b 413d 84f4 aa3d
00000040: 4a06 8abd de2a 92bd a9bc cdbd 6f02 a8bd
00000050: f40f 99bd 92f1 c03d 68d2 babd f0e7 033e
00000060: 8412 923d 93df a23d d48b fd3c 7b19 9d3d
00000070: 7e6a e6bd dd7c f8bb 6abb 9bba 6f5a 023e
00000080: 2c7f 1abb 4d1b 893c 3766 d7bc 34ec 86bd
00000090: 2013 94bd 6159 ee3c 45a5 65bd 07ee 883d
000000a0: 9fb6 19bd 7580 c4bd 17ab 703d 1b35 fc3d
000000b0: e75e efbd 303f e6bd 8b4d 573d fd07 26bd
000000c0: 72ae d63d 4b4b f63c 4adb b9bd b3f9 2fbc
000000d0: 9d64 8d3d 2509 a73d 453b 99bd f417 a13d
000000e0: fc58 fa3c e630 883c 92b5 f13c 3b2f b1bd
000000f0: 6fda babb 31c3 0bbe 56ff ec3c ebf4 babd
00000100: c23d 013e 3b81 7e3d e7dc abbd 23aa e83d
00000110: c173 05bb bce6 4c3d c7f1 abbd f465 e2bd
00000120: 3225 e5bd 6a28 b93d 827c fd3b a65f a0bc
00000130: 40a4 3f3c d31f e53b 9638 cebd c522 eabd
00000140: bf40 523d be20 9dbc dca1 74bc 1dc0 063e
00000150: 3d96 743d 9310 80bd 19f1 f9bd 49dc f33d
00000160: b6a2 cfbd 516b b0bd 4ef3 f23c 93e4 febd
00000170: c16b a2bd b55d 093e 1d39 a3bd b6c3 91bd
00000180: 666b 013e 99ef e23d e308 5fbd 1e92 0abd
00000190: abde 00be 26ae a1bd d5c7 d5bb be96 853d
000001a0: 2fdb c8bb 29ed 9abd c2a2 e73d 0bc8 b13d
000001b0: fe09 b83d f5b6 0ebe d3ab 933d 958a 06bc
000001c0: 1d39 3b3d 6ede 8abd 4c8f bdbd 6259 673d
000001d0: 46c6 123d ffec fa3d 5f6f b3bc da44 96bc
000001e0: e9fd 81bd 1977 ef3d 6c1f a83c 15f0 c73d
000001f0: 58fc 3bbd 445a c73d a746 623c 29e8 913d
00000200: 2f2e a2bd e9ce b0bd e4cb b83d a732 343d
00000210: 6ab3 953d 5768 663d eb69 ef3d 9a36 7cbd
00000220: 2f51 003d 451f d83c 3fa4 603d 7e9f 853d
00000230: d7f5 d73d 6896 dd3d b8e7 b7bb 8608 06bd
00000240: 07b6 d1bd 83bf aabd c07c 5a3d 8a67 05be
00000250: 824a 573d 542e 08be 0a78 8b3c 8675 9c3d
00000260: cbea 03be f065 5d3d 2bf5 a7bc 37ac 8d3d
00000270: ab9d 41bd 7cb0 f53b 5891 02be f04b 9b3d
00000280: 5dec 9dbd ce3f ee3c 33d7 023e 7b8a 803b
00000290: 1025 c3bc 81fe e7bd fb9e e53c 74da 2cbd
000002a0: 99a5 4d3d 6b4f 9f3d 5b22 f13d 0f55 febd
000002b0: 4806 9cbd e450 db3d 1e83 713d e933 9dbc
000002c0: de63 0a3d 5024 bd3d b025 153d d818 893d
000002d0: 1ebc 09bb 1469 febd f056 d7bd 98d2 74ba
000002e0: 44b7 a23b f837 323d a145 a3bb 4ebb 133d
000002f0: 1efa 3d3d 9d3c 1b3d 7e76 f43d fca2 20bd
00000300: bc68 d4bc 466f 0cbe cca8 65bd 9dc4 e13d
00000310: bae7 b83c 3667 013e 5432 afbd 8dde 193d
00000320: 13ca 243d 9b74 84bd e594 1b3d 5c9b 24bd
00000330: 66f6 f73d be6e 67bb 21d5 72bd 9473 fbbd
00000340: 47e9 03be 56b3 b73d 24e6 bd3d 06fd 2d3d
00000350: b8a4 07be e267 903d 7b55 ddbd 71c9 913d
00000360: 3eed abbc 9608 0cbe 25d2 8abd 08b7 84bd
00000370: 6280 c03d b51f 103d 4d06 bcbd 5634 aabc
00000380: 336d eabc 4e96 733d a1e6 1fbd f944 0c3e
00000390: ec8a dcbb d9a0 d03c 1033 9ebd 670e 01be
000003a0: bb41 fdbd dd89 9ebc 04e5 9b3d 0696 073e
000003b0: bbcb 0abb af92 c9bc 5e3b a3bb f794 ab3d
000003c0: b341 363d ff28 783d d088 613d 6279 fbbd
000003d0: ff5b b53d 7340 153d 03e7 f13d 1ad4 943c
000003e0: 48f2 fabd d4fa 5fbc 5a97 183d 7209 da3d
000003f0: 13e9 d13d b5c4 3e3d fb8e bfbd 681a e93c
0.02109333 0.10687499 0.13721795 -0.049971074 0.10806694 -0.03631272 -0.10718171 0.01135461
-0.028391162 0.11564593 -0.047366187 -0.110158846 0.111625664 0.09853288 0.047130227 0.08347419
-0.06739481 -0.071370825 -0.1004575 -0.08203589 -0.07473746 0.09421076 -0.09122163 0.12881446
0.07132438 0.079528 0.030950464 0.07670876 -0.112507805 -0.0075832442 -0.0011881415 0.1272981
-0.0023574336 0.01673665 -0.026293857 -0.06588021 -0.0723021 0.029095354 -0.056065816 0.06686025
-0.037527677 -0.09594814 0.058756914 0.123148166 -0.11688023 -0.11242521 0.052564185 -0.040534962
0.104824916 0.0300652 -0.09075029 -0.010740685 0.06903956 0.08156041 -0.07482008 0.07865897
0.03056001 0.01662488 0.029505525 -0.086515866 -0.005702309 -0.13648678 0.028930347 -0.09128746
0.12621215 0.062134963 -0.08391743 0.11360576 -0.0020363184 0.050024733 -0.08395725 -0.11054602
-0.11188735 0.090409115 0.0077357898 -0.019576859 0.011696875 0.006992319 -0.10069387 -0.11432413
0.051331278 -0.019180652 -0.014931168 0.13159223 0.05971359 -0.06253161 -0.12204189 0.119072504
-0.101384565 -0.08614219 0.029657032 -0.12445941 -0.07930709 0.13414653 -0.07969878 -0.07117407
0.12638626 0.11080856 -0.054451834 -0.033830754 -0.12584941 -0.07894544 -0.006524066 0.065228924
-0.0061296443 -0.07564766 0.113103405 0.08680733 0.08986281 -0.1393698 0.07210507 -0.0082117515
0.045708764 -0.06780706 -0.09255847 0.056481726 0.03583362 0.12252235 -0.021903692 -0.018343378
-0.06347258 0.11692638 0.020522796 0.09762589 -0.04589495 0.09734014 0.01381079 0.07124359
-0.07918965 -0.08633215 0.09023264 0.04399362 0.07309611 0.05625185 0.11690124 -0.06157551
0.031327423 0.026382098 0.054844137 0.06524561 0.10544937 0.10819703 -0.00561234 -0.032722972
-0.10239797 -0.08337309 0.053341627 -0.13027778 0.05256129 -0.13298923 0.017025013 0.07639603
-0.12882535 0.054052293 -0.020502647 0.06917613 -0.047269505 0.007497845 -0.12750757 0.07582843
-0.07711098 0.029083159 0.12777404 0.003922758 -0.023821384 -0.1132784 0.02802991 -0.04220052
0.050206754 0.0777882 0.11774131 -0.124185674 -0.076183856 0.10708788 0.058962934 -0.019189792
0.033786647 0.09235442 0.036412895 0.06694192 -0.0021016668 -0.12422386 -0.10514629 -0.0009339242
0.0049656946 0.043510407 -0.0049826656 0.0360673 0.04638111 0.037899602 0.11936663 -0.039217934
-0.025928847 -0.13714322 -0.05606918 0.11023829 0.022571433 0.12637028 -0.08554521 0.037565757
0.040231775 -0.06467553 0.037983794 -0.040187225 0.12107544 -0.003531381 -0.059285287 -0.12277904
-0.12881957 0.089697525 0.092724115 0.04247763 -0.13246429 0.07051064 -0.1080732 0.071185
-0.02098715 -0.1367515 -0.06778363 -0.06480223 0.09399487 0.03518649 -0.09180889 -0.020776909
-0.028616523 0.059469514 -0.039038304 0.13698186 -0.006730428 0.025467323 -0.07724583 -0.1260315
-0.12366053 -0.019352848 0.07612041 0.13240823 -0.0021178562 -0.024606077 -0.0049814424 0.08378022
0.04449625 0.060585972 0.055062115 -0.12279011 0.088554375 0.036438417 0.1181164 0.018167544
-0.12253243 -0.013670642 0.037253715 0.10646333 0.102495335 0.046574313 -0.09353443 0.028454974

fc1.bias f4 [128]
00000000: c541 2bbb aed0 d13c 81c5 8abc b183 0cbe
00000010: 9d91 d53d 4534 0b3e b198 d4bd b303 103e
00000020: 4ce9 4b3d 14f1 b8ba 53aa 51bd 9f17 dd3d
00000030: 679b d13d 73b6 6d3e 15a6 cdbd 7fc8 95bd
00000040: 64bb cc3c 43c3 96bc 7052 e5bd bf1a e93d
00000050: c129 c63d 2373 c6bd 0bc6 b2bd 143f 143e
00000060: add5 71bc 5e43 0a3d 55fd cc3d 0508 03bc
00000070: c670 e43d 2ccd 4f3e 1606 00be 6764 a4bc
00000080: 9327 d13c 84a9 9d3d b2d6 a3bd ee4a bcbd
00000090: 1b7b 063b 4460 e63d 99a3 b9bd 5b6a a5bd
000000a0: 98dd 19bd e4cd d73d db17 a0bd 4954 3d3d
000000b0: 4b4b 9cbd b86c 5ebd 7a1d cfbd 884f 91bd
000000c0: e02e b7bd b3bf f93b 4fc8 173e f956 dd3d
000000d0: 0b92 313d 8299 3cbd cf1f 8bbd 84ea 8dbd
000000e0: 0f5d ca3d bb19 a33c 9b00 063e d98d 19bd
000000f0: 8d53 8dbd b232 93bd 5aa8 7b3d c97d 0bbb
00000100: 29b9 1ebd 1f03 d5bd 6c6b c3bd fb29 77bb
00000110: b72b 213e dffd ba3c 12fc aebc e820 cbbd
00000120: 868e 03be bdd2 1d3d 3987 823c d8a4 b13c
00000130: d8b8 6f3d f064 3fbc 3803 373d 6952 46bd
00000140: 4f5e 913b 4060 853d e121 17be 1211 01be
00000150: b845 a73d b145 2c3d 824f b5bd acf0 913c
00000160: 448e 75bc ee33 a33d 6ce7 a8bc 8de3 43bc
00000170: c889 10be e816 513d bc7a 083d 847f 63bd
00000180: b8c2 14bc 2de0 e63b bfb0 743d 227d 5ebd
00000190: 026f 71bd 9b71 f9bd 8647 17bd 6ae4 a03d
000001a0: 81eb 33bc cae0 1a3e dcc0 163e 1aac efbd
000001b0: b62c 34bd 69a5 2a3c f51f be3d 8098 1f3b
000001c0: b179 92bc 78cd a1bd 5c7c eebd db54 8bbd
000001d0: a99e d7bd a241 253e 8108 5bbd 4cf0 16bd
000001e0: c2e8 82bd 6f72 45bc 7c17 0b3d 3c00 113e
000001f0: a650 f1bd fde7 edbd 40b9 283c 8c9b 113d
-0.002613173 0.025612202 -0.01693988 -0.13722111 0.10428164 0.13594158 -0.10380686 0.14063911
0.049783036 -0.0014109933 -0.051187824 0.10795521 0.10234719 0.2321413 -0.10041443 -0.07313632
0.024991699 -0.018403655 -0.11197364 0.113820545 0.09675933 -0.09689929 -0.0872918 0.14477187
-0.014760417 0.033755653 0.10009257 -0.0079975175 0.11154322 0.2029311 -0.12502322 -0.020067407
0.025531566 0.07698348 -0.07999934 -0.09193979 0.0020520154 0.1124883 -0.09064407 -0.08076926
-0.037564844 0.105373174 -0.0781705 0.04622296 -0.076315485 -0.0543029 -0.10113044 -0.070952475
-0.089444876 0.0076217293 0.14822505 0.10807604 0.043352168 -0.046044834 -0.067931764 -0.06929496
0.09881031 0.01990973 0.13086168 -0.037488792 -0.06900702 -0.07187404 0.06143985 -0.002128469
-0.0387508 -0.10400986 -0.095419735 -0.0037714231 0.15739332 0.022826133 -0.02136043 -0.09918386
-0.12847337 0.038531054 0.01593362 0.021685049 0.05852589 -0.01168178 0.044680804 -0.048418436
0.0044362913 0.06512499 -0.14759018 -0.12604168 0.08167595 0.04205865 -0.088530555 0.017814957
-0.014987532 0.07968889 -0.020618163 -0.011956108 -0.1411506 0.051047236 0.033320174 -0.05554153
-0.009079628 0.007045767 0.05973887 -0.054318555 -0.058943756 -0.12179872 -0.036933444 0.078560665
-0.0109814415 0.15124813 0.14722008 -0.11702748 -0.043987952 0.010415413 0.09283439 0.0024352372
-0.017880293 -0.07900518 -0.116448134 -0.06803294 -0.10528309 0.16138318 -0.053474907 -0.03685026
-0.06392051 -0.012051209 0.033957943 0.14160246 -0.117829606 -0.11616514 0.010298073 0.03554873

bn1.weight f4 [128]
00000000: 0000 803f 0000 803f 0000 803f 0000 803f
00000010: 0000 803f 0000 803f 0000 803f 0000 803f
00000020: 0000 803f 0000 803f 0000 803f 0000 803f
00000030: 0000 803f 0000 803f 0000 803f 0000 803f
00000040: 0000 803f 0000 803f 0000 803f 0000 803f
00000050: 0000 803f 0000 803f 0000 803f 0000 803f
00000060: 0000 803f 0000 803f 0000 803f 0000 803f
00000070: 0000 803f 0000 803f 0000 803f 0000 803f
00000080: 0000 803f 0000 803f 0000 803f 0000 803f
00000090: 0000 803f 0000 803f 0000 803f 0000 803f
000000a0: 0000 803f 0000 803f 0000 803f 0000 803f
000000b0: 0000 803f 0000 803f 0000 803f 0000 803f
000000c0: 0000 803f 0000 803f 0000 803f 0000 803f
000000d0: 0000 803f 0000 803f 0000 803f 0000 803f
000000e0: 0000 803f 0000 803f 0000 803f 0000 803f
000000f0: 0000 803f 0000 803f 0000 803f 0000 803f
00000100: 0000 803f 0000 803f 0000 803f 0000 803f
00000110: 0000 803f 0000 803f 0000 803f 0000 803f
00000120: 0000 803f 0000 803f 0000 803f 0000 803f
00000130: 0000 803f 0000 803f 0000 803f 0000 803f
00000140: 0000 803f 0000 803f 0000 803f 0000 803f
00000150: 0000 803f 0000 803f 0000 803f 0000 803f
00000160: 0000 803f 0000 803f 0000 803f 0000 803f
00000170: 0000 803f 0000 803f 0000 803f 0000 803f
00000180: 0000 803f 0000 803f 0000 803f 0000 803f
00000190: 0000 803f 0000 803f 0000 803f 0000 803f
000001a0: 0000 803f ffff 7f3f 0000 803f 0000 803f
000001b0: 0000 803f 0000 803f 0000 803f 0000 803f
000001c0: 0000 803f 0000 803f 0000 803f 0000 803f
000001d0: 0000 803f e194 803f 0000 803f 0000 803f
000001e0: 0000 803f 0000 803f 0000 803f 0000 803f
000001f0: 0000 803f 0000 803f 0000 803f 0000 803f
1.0 1.0 1.0 1.0 1.0 1.0 1.0 1.0
1.0 1.0 1.0 1.0 1.0 1.0 1.0 1.0
1.0 1.0 1.0 1.0 1.0 1.0 1.0 1.0
1.0 1.0 1.0 1.0 1.0 1.0 1.0 1.0
1.0 1.0 1.0 1.0 1.0 1.0 1.0 1.0
1.0 1.0 1.0 1.0 1.0 1.0 1.0 1.0
1.0 1.0 1.0 1.0 1.0 1.0 1.0 1.0
1.0 1.0 1.0 1.0 1.0 1.0 1.0 1.0
1.0 1.0 1.0 1.0 1.0 1.0 1.0 1.0
1.0 1.0 1.0 1.0 1.0 1.0 1.0 1.0
1.0 1.0 1.0 1.0 1.0 1.0 1.0 1.0
1.0 1.0 1.0 1.0 1.0 1.0 1.0 1.0
1.0 1.0 1.0 1.0 1.0 1.0 1.0 1.0
1.0 0.99999994 1.0 1.0 1.0 1.0 1.0 1.0
1.0 1.0 1.0 1.0 1.0 1.0045434 1.0 1.0
1.0 1.0 1.0 1.0 1.0 1.0 1.0 1.0

bn1.bias f4 [128]
00000000: c2a9 b0bb 7ab5 21bc 5696 c4bb 097c 983a
00000010: ca13 2b3b 533d 433d 1bd0 ca39 1aab 4c3c
00000020: dbae b73c 361b 5ebc d4ff 553c 3569 91bc
00000030: 37a6 d7bb 1e4e 753d d089 27ba d4be 4b3a
00000040: b57c c8bb bead b6ba 58ef a2bc 9cdc 8abb
00000050: 2602 18bc a1dd 65ba e2c4 fcba ead6 803c
00000060: ce68 6fb9 1e39 94bb 97c0 033d 9550 35bb
00000070: a33e e3bb c7ec 2e3d 0b53 58bb 9412 60bb
00000080: 123e 0b3c 85d0 8b3a ebeb 13ba 993d 10ba
00000090: 66d9 37bc f81a 9d3c 14bd a6b9 2a91 0dbb
000000a0: bd1f 4dbb a882 79bc 014e d6bb 92bf d2bb
000000b0: 334b bdbb d329 26ba cf88 d5b9 505e 8536
000000c0: 3427 b9bb 93f0 ccba cc03 0f3d 32f1 853c
000000d0: 5ef1 a0ba 5171 be3b 1194 843b bd04 023b
000000e0: 6309 93bb ea7b 0ebb 50eb f83c 728e 033c
000000f0: 3770 a3ba 575b 8ebb 913a 8abb 0b5a 8bbb
00000100: 51e3 0dbc 37b2 65b9 0fb5 d9ba acdb b7ba
00000110: aee6 b13c 98ea 0a3d eb23 21b9 bf37 a0ba
00000120: 8743 a0b8 0c98 05bc 8c86 7f3b 6036 b4bb
00000130: ab20 58ba 8682 27bc 5d07 b73c 51e7 253a
00000140: c6b2 e0b9 7b13 113b 3dc3 c4bb 6d9b c439
00000150: 7018 883a 1536 9abb 00f5 033a a8d6 0939
00000160: a933 12bb 0d2d f33a 3852 2c3b 2f23 21bc
00000170: 54ff d0bb 6240 fd3c 5795 413d 55e4 4dba
00000180: a23f 853a ad31 d6bb 7674 a0ba c87b 25bb
00000190: 794d 493a c961 3cb3 be58 a5bb aae9 10bc
000001a0: 7df7 453c 8cd3 293d 5ef6 6c3d e985 fbb9
000001b0: c80a ffb8 1860 6ebc 0351 c43a 481a 0abb
000001c0: b46f 1cbc 775d ecb8 ca51 52bb 70b0 393c
000001d0: 0ea6 89ba bee0 5c3d 5a4c 73bb 240e 4cb8
000001e0: 5c93 b139 10d1 85bb 0631 4ebb b383 683c
000001f0: f4a6 a636 6641 bbba bfc8 8bbb 8bc0 84bb
-0.0053913305 -0.009869928 -0.0059993668 0.0011633645 0.0026104324 0.047665905 0.00038683493 0.012491966
0.022422245 -0.013556292 0.013061482 -0.017750362 -0.0065810937 0.05988895 -0.000639108 0.0007772271
-0.006118382 -0.0013937277 -0.019889519 -0.0042377245 -0.009277856 -0.0008768682 -0.001928475 0.015727479
-0.00022831859 -0.0045234105 0.03216609 -0.002766644 -0.006934957 0.042706277 -0.0033008482 -0.003419076
0.008498685 0.0010667002 -0.00056427595 -0.0005502343 -0.011221265 0.019177899 -0.00031802861 -0.0021601417
-0.0031299435 -0.015228905 -0.0065400605 -0.0064315284 -0.0057767867 -0.000633863 -0.00040728456 3.9746883e-06
-0.0056504253 -0.0015635662 0.03491573 0.016350362 -0.0012278964 0.005811848 0.004045971 0.001983925
-0.004487203 -0.002174134 0.030385643 0.008029567 -0.0012469356 -0.0043443847 -0.0042184074 -0.0042526773
-0.0086601535 -0.00021905532 -0.0016609746 -0.0014027259 0.021716442 0.033915132 -0.00015367537 -0.0012223645
-7.6419725e-05 -0.008153927 0.0038990108 -0.005499646 -0.0008244614 -0.01022399 0.022342378 0.00063287193
-0.00042857806 0.0022136855 -0.0060047195 0.00037499834 0.001038326 -0.004706154 0.0005033761 0.00013145304
-0.0022308624 0.0018552855 0.0026294123 -0.009835049 -0.0063780937 0.03091449 0.047261562 -0.00078541535
0.0010166059 -0.0065366835 -0.0012241739 -0.0025250781 0.0007679086 -4.3861096e-08 -0.0050459793 -0.008844772
0.012082932 0.041461512 0.05785214 -0.00047974222 -0.00012161356 -0.014549278 0.0014977757 -0.0021072794
-0.0095481165 -0.00011270766 -0.0032092207 0.01133357 -0.0010501759 0.05392527 -0.0037124366 -4.865056e-05
0.00033869862 -0.00408376 -0.0031462326 0.014191556 4.9666214e-06 -0.0014286458 -0.004265874 -0.004051273

bn1.running_mean f4 [128]
00000000: 4574 3a3d cc4d e33d da1b 503d 176c 81bd
00000010: 14a0 783d dd9c a73d 1ef4 22be 4cc0 123e
00000020: 127c c13c 0d52 933d e0c1 99bb 8b6a 163e
00000030: a739 af3d 81fd 833d a763 c7bd 35dd 02be
00000040: d8f1 9c3d 8667 9ebd ef82 203e 3a50 243d
00000050: 500c a93d 9c30 7dbd ae35 dfbc 6c26 c73d
00000060: 65db e4bd 181a 2abd c61d 0b3e 0fd3 15bd
00000070: ca82 4a3d f4a6 953e 0b8b 4bba 3f51 2fbb
00000080: 17d2 8fbb 71cd 5cbd 7220 0cbe 858a e1bd
00000090: 17ff 953d 788e c13d 6a85 57bc 380d 8abd
000000a0: 52ef 3cbd 67fa 343e 4a36 b73d 8afe 143d
000000b0: fbcf efbb 9f77 a7bd 82f7 c7bd 97df 15be
000000c0: e152 b9bb 7dd9 02bd fc08 c83d 5a85 1b3e
000000d0: 50f5 8bbd b928 a33b d03a aabd 30aa 913c
000000e0: 84f5 83bd 46c9 0dbd 9c67 7a3d 97f5 29bd
000000f0: cd1e b5bd 876e 5c3d f6d4 d83d a66e 163c
00000100: 6b07 a03c 9bf7 bbbd f126 a2bd ee52 28bd
00000110: bc38 733d afca a1bc 2aa1 37be 629e 58be
00000120: 3fda 20be ea97 9dbb 6bbd 46bc f755 793b
00000130: 66cc 48bd 2e07 5a3d 43f9 043e 6856 29be
00000140: 61a5 8ebd 4002 b03d bbc3 28bd 0d79 c7bd
00000150: 6e88 02bd 4c55 edbc 41f6 d8bd b909 27bd
00000160: 5103 68bd fa9a 183e 8d0c e3bd 76b8 123d
00000170: a373 a73c b9bf 063d b754 51bb 13ee f3bc
00000180: 8baa 89bc 9698 e5bc dfdb 71bd 5007 09be
00000190: 8bfb aabd fc9b 37be ac31 3cbc 6969 2d3d
000001a0: ce37 ae3c 70a4 3bbc a468 293c b631 90bd
000001b0: 5bdb 2fbe d2f6 f23d e273 bbbd ed5b 733c
000001c0: 6d2b 9f3d 2a92 40be fb5e a83b 5737 a33c
000001d0: d775 53be 8a9d 923e 6bc4 f4bd 5b78 b5bd
000001e0: cdee aebd f740 5f3d 7bf2 e0bd 1d47 ab3d
000001f0: 8653 5dbe ada8 95bd 29a3 51bc ff67 813c
0.04552104 0.11098823 0.05080781 -0.063194446 0.060699537 0.08184216 -0.15913436 0.14331168
0.023618732 0.07193384 -0.004692301 0.1468908 0.08555918 0.064448364 -0.09735804 -0.12779696
0.076633155 -0.07734589 0.15674947 0.040115573 0.082543015 -0.061813936 -0.027247276 0.09724125
-0.11174659 -0.04152879 0.13585576 -0.036578234 0.049441136 0.29228938 -0.00077645545 -0.0026751307
-0.0043890583 -0.05390686 -0.13684252 -0.11012749 0.07324045 0.09451002 -0.013154367 -0.067408025
-0.04612667 0.17673646 0.08945902 0.03637556 -0.0073184944 -0.08177113 -0.09764005 -0.14636074
-0.005655632 -0.031945694 0.09767339 0.15187588 -0.06833899 0.0049792198 -0.08311999 0.017781347
-0.06443313 -0.034615777 0.061133966 -0.04149398 -0.088437654 0.053816345 0.10587494 0.009181654
0.019534787 -0.09178086 -0.07917584 -0.041094713 0.059380278 -0.019749967 -0.17932573 -0.21154168
-0.15708254 -0.0048093693 -0.012130122 0.0038045624 -0.049023055 0.053229503 0.12985711 -0.16536868
-0.06965137 0.08594179 -0.041202288 -0.097398855 -0.03186839 -0.028971337 -0.10593844 -0.040780757
-0.056643788 0.14902869 -0.11086378 0.035820447 0.020440882 0.032897685 -0.0031941363 -0.029776609
-0.016804954 -0.02802686 -0.059047576 -0.13381696 -0.08348759 -0.17930597 -0.011486452 0.042336855
0.021266844 -0.011452779 0.01033989 -0.070407316 -0.17173521 0.118634835 -0.09152962 0.01485346
0.07771955 -0.18805757 0.0051382757 0.019923849 -0.20650421 0.28635818 -0.11951526 -0.088608466
-0.085416414 0.054505315 -0.109837495 0.08363173 -0.21613893 -0.07307563 -0.012795248 0.01579666

bn1.running_var f4 [128]
00000000: 06c1 b23e e113 b33e 0eaf b23e caa0 b23e
00000010: bdbe b23e 8508 b33e 08e5 b23e 7fb7 b23e
00000020: 3028 b33e 930b b33e eec7 b23e 50ec b23e
00000030: 4dde b23e fe5a b33e 1d0b b33e ac23 b33e
00000040: 48eb b23e a3c9 b23e 7365 b33e 25b1 b23e
00000050: 1f9c b23e 27dc b23e 0e5d b33e dbab b23e
00000060: dff6 b23e f603 b33e 98df b23e 35d5 b23e
00000070: f1a4 b23e b7b7 b33e 60f9 b23e 984c b33e
00000080: 11f8 b23e 78c1 b23e 7c53 b33e fc15 b33e
00000090: f6fa b23e 5ab9 b23e f0d1 b23e 8bc9 b23e
000000a0: b8c3 b23e 262c b33e 9111 b33e 54b4 b23e
000000b0: 27ce b23e bee5 b23e c3dd b23e 15e1 b23e
000000c0: f6cf b23e 8a0f b33e 00c1 b23e f237 b33e
000000d0: 90cd b23e 62a6 b23e 4edc b23e df43 b33e
000000e0: a208 b33e f6c0 b23e adf0 b23e e8b8 b23e
000000f0: 57d8 b23e 2569 b33e 2dbd b23e 2dc4 b23e
00000100: d4a9 b23e 61c3 b23e 4c64 b33e 08d7 b23e
00000110: c6e6 b23e c3e7 b23e c24a b33e d770 b33e
00000120: 3ce0 b23e c410 b33e 44cb b23e ffdb b23e
00000130: 2b94 b23e 3dcd b23e 890f b33e 3c6d b33e
00000140: aec8 b23e 1221 b33e af36 b33e 89ee b23e
00000150: bfd4 b23e cdc0 b23e 8703 b33e 57a9 b23e
00000160: bc03 b33e bbd5 b23e b52d b33e 7315 b33e
00000170: efb6 b23e f2ee b23e bab3 b23e 6297 b23e
00000180: fcf9 b23e bb21 b33e ba9e b23e 114c b33e
00000190: 2dcb b23e 49d9 b23e 08a8 b23e 84f3 b23e
000001a0: 8ba3 b23e 58d1 b23e 22c1 b23e 8bc0 b23e
000001b0: 86f1 b23e 73cf b23e 4ddd b23e 02c7 b23e
000001c0: 2aa3 b23e bf19 b33e aec8 b23e 2b35 b33e
000001d0: 00f3 b33e 3e31 b43e a903 b33e 56dc b23e
000001e0: b2f8 b23e 6dde b23e 0845 b33e 87dc b23e
000001f0: a11a b33e d6fa b23e 5a9e b23e 6b41 b33e
0.3491289 0.34976104 0.3489918 0.34888297 0.34911147 0.34967437 0.34940362 0.3490562
0.34991598 0.34969768 0.3491816 0.34945917 0.34935227 0.3503036 0.34969416 0.34988153
0.3494513 0.34919462 0.35038337 0.34900776 0.34884736 0.34933588 0.35031933 0.3489674
0.34953973 0.3496396 0.34936213 0.3492829 0.34891465 0.351011 0.34955883 0.35019374
0.34954885 0.3491323 0.3502463 0.3497771 0.34957093 0.34907037 0.34925795 0.3491939
0.34914947 0.3499462 0.3497434 0.34903204 0.34922907 0.34940904 0.34934816 0.3493735
0.34924287 0.34972793 0.34912872 0.3500362 0.34922457 0.34892565 0.34933704 0.3501272
0.34967524 0.34912843 0.34949246 0.34906697 0.3493068 0.35041156 0.34909955 0.34915295
0.34895194 0.34914687 0.35037458 0.3492968 0.3494169 0.34942445 0.35017973 0.35047027
0.34936702 0.3497373 0.34920704 0.3493347 0.34878668 0.3492221 0.3497279 0.35044277
0.3491873 0.34986168 0.35002658 0.34947613 0.34927937 0.3491272 0.3496363 0.3489482
0.34963787 0.34928688 0.3499581 0.34977302 0.34905192 0.34947926 0.34902745 0.3488112
0.34956348 0.34986672 0.34886724 0.35018972 0.34920636 0.349314 0.34893823 0.34951413
0.34890398 0.34925342 0.34912974 0.34912524 0.34949893 0.34923896 0.34934464 0.34917456
0.3489011 0.3498058 0.3491873 0.350015 0.35146332 0.3519382 0.3496373 0.34933728
0.34955364 0.34935322 0.35013604 0.34933874 0.34981254 0.34956998 0.34886438 0.35010847

fc2.weight f4 [256, 128]
00000000: e94e 94bd d7c6 5d3b bcd3 3dbd 8f5d cabc
00000010: ce71 89bd a3b7 4e3d a9e9 ef3c 4ad6 913c
00000020: fc4d aebd c3f4 973d f151 1d3d f39b b4bd
00000030: 0dfc 4ebd 0775 e7bc 22ca 3dbd 2bdc 97bd
00000040: e6ad a9bd 09c9 993d 4124 a1bc c9e2 5cbd
00000050: 44bf 5e3d bfb5 683a 2cbc b43d 8840 9abd
00000060: 1e2a 61bd 2674 753d 647d b33d 2b22 b2bd
00000070: 15b3 c0bc 0c8d 0f3c f330 9f3d bcf8 72bc
00000080: c454 74bd 3a83 99bd 1cce a53d d11f 823d
00000090: 63db 903d 6687 24bd 88c6 943d 8c05 353d
000000a0: 81fc dfbc 2345 213c 79a5 a13d d887 543c
000000b0: 37b8 99bd 2b9a e4bc 82f3 143d 165d 993c
000000c0: d2dd 9f3d fb59 223d c7dd 1e3c ca34 c63c
000000d0: c64d ed3c cd88 31bd db45 f33c c991 dd3c
000000e0: d397 363c 0904 433b a5a9 6f3d 986b d2bc
000000f0: b94d 84bd 3124 183d 1b9e 94bd c247 973d
00000100: 6aa6 353d b265 38bd 2d50 a53d 3ce5 a03b
00000110: 3ded 343d 5dd6 b1ba 4630 853d 7a16 c5bc
00000120: 36c9 473c 19cf e7bc 8cb4 6bbd f25e a1bd
00000130: cb24 ebbc 7406 93bd 9e3b a73d 67fe b53c
00000140: a4dc 0fbd be59 e63c 5a7f 03bd a117 943d
00000150: 4ddf ab3d a409 03bd 8f85 85bd d4bf 49bc
00000160: 496a 833b c20f 8abb 0edc fabc fdeb 88bc
00000170: d6fe 723d 2e98 f9bc d757 aebd d940 19bd
00000180: c2ae e53a 517f 41bd e21c c53c 9219 b23d
00000190: 844a 453a 174d dc3c 161d 9ebd 3d87 7cbd
000001a0: 43a5 6abd 8022 3e3d 6f3e 85bc 90f7 b43d
000001b0: dd2c 2b3c c767 5dbd 6458 bdbc ec7f c1bb
000001c0: 40d9 e93b 150e 8abb 3bc7 a83c e779 17bd
000001d0: 326f 89bd 0818 a6bc 4b0e 993d 8bae c2bc
000001e0: 0172 8e3d c791 933c fa94 57ba 2c85 413d
000001f0: 0716 97bd 4954 853c cbbd 20bd ff08 9d3d
00000200: 68af 353c f544 283d a21a 7b3c 50d1 813b
00000210: fbde 463a 2ff6 913d 4479 9cbc e754 a8bd
00000220: 08bf d2bc 1db7 8cbd c581 f53c 9cf6 8b3d
00000230: 0280 223d e6ad 08bd 7fe0 0dbc 2196 503d
00000240: 3893 923c fedf b2bc e782 ecbc 43c9 24bd
00000250: a1e8 7ebc 4c5e b03d 013f 603d 8a12 b1bc
00000260: e290 2cbd f336 6fbd afac 29bb 83e0 1d3d
00000270: be38 99bd b486 db3c f819 b83c 30df 77bc
00000280: 511b 86bc e120 6cbc 3985 63bc 010a 883d
00000290: 3256 793d e77c e1bc 5c2d cfbc 0cf7 7e3d
000002a0: e828 413c 8174 b3bd fd97 c5bc 3135 b43d
000002b0: e468 fdbb 1209 44bd b84c c2b9 77a7 983d
000002c0: ae12 79bd 4a3a aebd 2287 20bd 51fa b5bc
000002d0: 35e8 70bd 1586 86bd be52 373d 44d6 3b3d
000002e0: 9081 3cbb 61aa cc3c caef 9bbd e4a7 d3bc
000002f0: 817f 433d 5609 13bd 33e1 9d3d 4041 843d
00000300: 58c7 fb3b a64c 5ebd 89f6 703d 0344 01bd
00000310: 3342 9cbc e718 d73c b22d 9fbd 2963 8cbd
00000320: 2c8b 623c 3d96 48bd 96c5 71bb cc39 af3d
00000330: 4f99 1abd 4788 563b c2da 83bc 4e7d 213d
00000340: 5469 30bd 4d24 a5bc a839 b2bd 498e 76bd
00000350: 898d da3c 6662 113d 7fa7 a83c 4ed4 4dbd
00000360: 72b2 893d ac02 4a3d 97f3 5cba d98f 71bd
00000370: 7d7a 06bd 2545 af3d 0a85 cbbc 5352 acbd
00000380: 2415 3a3d d5b7 5cbd 5667 a13d f773 1cbd
00000390: 8f14 40bd efa7 98bd a6d5 283d afae 1fbd
000003a0: bfb7 963d b7e2 f43c b2cf b8bc 0665 5ebd
000003b0: e6e4 143c 7c06 d53c 3661 38bd e527 b4bd
000003c0: d05a b1bd 61e6 a93c 9e2e fabc 3077 383d
000003d0: ed8b a5bd 3c2f 85bd 2772 0b3d 64d0 adbd
000003e0: 2c61 4c3c 1760 22bd 92a6 50bd e568 39bd
000003f0: 3505 9dbc 5132 4abd b1dd b13d 1b20 573d
-0.072416134 0.0033840442 -0.046344504 -0.024702815 -0.0671116 0.0504681 0.029286223 0.017802376
-0.08510968 0.074197315 0.038408224 -0.088188075 -0.050533343 -0.028254045 -0.046335347 -0.074150406
-0.082851216 0.075090475 -0.019670608 -0.053927217 0.054381624 0.000887718 0.088249534 -0.075318396
-0.054971807 0.05992522 0.08764151 -0.08697923 -0.023522893 0.008761656 0.07773008 -0.014829811
-0.05965115 -0.074957326 0.08095953 0.06353725 0.07073095 -0.04016819 0.07264429 0.044194743
-0.027342083 0.009843144 0.078928895 0.012971841 -0.07505839 -0.027905544 0.03636504 0.018721145
0.07805981 0.039636593 0.0096964305 0.024195094 0.02896775 -0.043343354 0.029696396 0.027047055
0.011144596 0.0029757044 0.058511395 -0.02568607 -0.06460137 0.03714389 -0.07256719 0.073867336
0.044348158 -0.04501886 0.08071933 0.0049101394 0.04417156 -0.0013567914 0.06503348 -0.02405857
0.0121939685 -0.028296994 -0.05754523 -0.078794375 -0.028704068 -0.07178965 0.08165668 0.022216035
-0.03512253 0.028118964 -0.032103874 0.07231069 0.083922006 -0.031991616 -0.06519615 -0.012313802
0.004010473 -0.0042133043 -0.030622508 -0.01671409 0.05932506 -0.030468073 -0.08512848 -0.03741536
0.0017523395 -0.04724056 0.024061624 0.086962834 0.00075260573 0.026892228 -0.077203915 -0.06165241
-0.057286512 0.04641962 -0.016265122 0.08836281 0.010447708 -0.054054048 -0.023113437 -0.005905142
0.007136494 -0.0042131045 0.020602813 -0.03698149 -0.06710662 -0.02027513 0.07473429 -0.02376487
0.06955338 0.018013848 -0.00082237984 0.047246143 -0.07377248 0.016275542 -0.0392435 0.076677315
0.011089183 0.041081388 0.015326174 0.0039617196 0.0007586327 0.07127034 -0.019100793 -0.08219319
-0.025725856 -0.068708636 0.029969105 0.068341464 0.03967286 -0.033368967 -0.008659481 0.050924424
0.017892465 -0.021835323 -0.028871013 -0.040231 -0.015558393 0.08611736 0.054747585 -0.021615285
-0.04213036 -0.058402013 -0.002589028 0.03854419 -0.07481526 0.02679763 0.02247332 -0.015128896
-0.016370447 -0.014412136 -0.013886743 0.06642533 0.060873218 -0.027525378 -0.025290184 0.06224732
0.011789538 -0.08762456 -0.024120325 0.08799208 -0.007733451 -0.047860213 -0.00037059723 0.074538164
-0.06080883 -0.085072115 -0.039191373 -0.022214087 -0.0588152 -0.06568543 0.044756643 0.045858636
-0.0028763749 0.024983587 -0.076140955 -0.025836892 0.04772902 -0.035897575 0.07708969 0.06457758
0.0076836757 -0.054272316 0.058828864 -0.031559 -0.019074535 0.026256992 -0.077723876 -0.06854851
0.0138271265 -0.048971403 -0.0036891452 0.08555946 -0.037743863 0.0032735036 -0.016095523 0.03942614
-0.0430692 -0.020158911 -0.08702403 -0.060194287 0.026678817 0.03549423 0.02058768 -0.050251298
0.06723489 0.049318954 -0.00084286317 -0.058975074 -0.032831658 0.0855811 -0.024843711 -0.084141396
0.045430318 -0.053886253 0.07881038 -0.03819653 -0.046894606 -0.07453906 0.041219376 -0.03898495
0.073592655 0.029893262 -0.022559974 -0.054295562 0.009087777 0.026004069 -0.045014583 -0.08796672
-0.08659899 0.020739736 -0.030539807 0.04503554 -0.08083329 -0.0650315 0.03404441 -0.08487013
0.012474339 -0.03964242 -0.050940104 -0.04526605 -0.019167522 -0.04936439 0.086848624 0.052520853

fc2.bias f4 [256]
00000000: a2d9 483d acc2 79bd 5e1f a93d 086f 04bd
00000010: 68f4 fa3c cc6b a43d 396f eebb d673 153d
00000020: b6e5 dd3c 17f9 743d 9657 45bd 2e8f 3fbd
00000030: b2be 85bd 3502 80bd 1777 a73c b727 8f3d
00000040: 7e37 34bc e0be 78bd f6fa 1dbd e97c 0e3d
00000050: f6f2 173c 17ca 3d3d 186a 273b fbbc 95bd
00000060: 4b04 903d 4c72 b2bd 2ef5 223c 9385 8b3d
00000070: 5fcf 173d 5e7f 35bc 8c67 5fbd 6ff2 493c
00000080: 92ff 753d ba7e 8a3d 3052 d13c 6693 803d
00000090: f38e b4bc e69b 80bd bcb7 cf3c ec8c 9e3c
000000a0: 10f5 b13d d3ac b03d 9b5e 4dbd cffe 05bc
000000b0: 2a04 0d3d 7836 39bd 03d2 193d 118c 2c3d
000000c0: 87e1 7e3d 8528 2e3d a8d5 113d c91f 96bc
000000d0: 255f a33d 64bb a93d 8a9f 5f3c e22b ab3d
000000e0: 9998 5c3d 75ef a7bd 620f 8a3c fd63 863d
000000f0: d856 063c 3cbf 643d 9827 adbc ec6a 753d
00000100: ac23 bcbc fd12 123c 3619 6cbd da7e ae3c
00000110: fc22 d6bc a5ca a8bd 9bd2 82bd 0bf4 5abc
00000120: 3583 80bd 8e55 143d c725 a7bd caf6 a13d
00000130: 53de 51bb 3af5 a13c 4c30 cb3c 083f 223d
00000140: cefe 88bd 9968 22bd 31ed 7c3c 9d2c 70bd
00000150: 7ac8 26bd 02fd c2bc 0cd9 7fbc 2669 eebc
00000160: 40ff 753d 2f5d 703c 7eb1 483c 0b61 9abd
00000170: ba06 abbc 59bb 2f3d 80c1 2d3d 1ad5 03bd
00000180: 4d00 afbd e09d f6bc bf4e 153d a2c3 93bd
00000190: e30a 5c3d 8e17 1c3d d1de 9f3d c877 a13b
000001a0: ebd6 c13c ea71 85bd 3238 023b ea8e 2a3d
000001b0: 6614 ef3c 68d1 993d 5104 e63a d858 3d3d
000001c0: ec62 ae3b f16c 583d fd44 353d 522d ec3c
000001d0: 1b83 1b3d ae0e 983d de91 8abc d601 b9bc
000001e0: 0c28 abbb 1a61 573d 12b7 8f3d 3089 813c
000001f0: d97e c4bc 6b10 80bd 95c1 1ebd eb42 98bd
00000200: 60f6 b43d 614f 4dbc b2de 923d c19b 3bbb
00000210: 1490 623b 8197 a4bd 45de 8fbd 6c48 393d
00000220: 6990 49ba f8a3 7fbc 4459 8f3d 6932 7bbd
00000230: 28ba b33c 7455 73bb c615 6e3a 6815 883c
00000240: b756 b83b 1835 5cbd 3320 543d ac98 833d
00000250: c9d7 1a3d d9a2 873d aad3 983c 18fd 90bb
00000260: 0ab9 ec3c 49e6 76bc 655e 793d 9dbc 153c
00000270: be41 a13d 4b2e 0fbd b7cb cebc 9016 ad3d
00000280: d4c5 9d3d 4ae1 873d f896 673c 0618 733c
00000290: 84cd 4ebd 1232 073d d364 8cbd 8cc4 99bb
000002a0: aac9 5e3d c045 003d 1fc7 49bd 92b9 90bd
000002b0: cd6b 11bc 37e9 92bd 9694 73bd ddfa d3bc
000002c0: e379 8f3d 0f29 a73d 2df2 633d 39c6 113c
000002d0: 94c7 793c 8683 63bd 4489 403d 61ff 0a3c
000002e0: 0320 5a3d 013c d93b aea5 90bd 5219 d73c
000002f0: 361d 03bc 5a8e 93ba 7621 8abc ec1e 98bd
00000300: b320 a7bd 991d a23b 6370 8b3d c86b 323d
00000310: 5710 4c3b d17d 29bd fa54 00bd caa7 ab3d
00000320: 1e01 3dbd 2733 843d 1c19 7dbd e7a1 3e3d
00000330: f3fe 9dbb 1bae 843d a2e7 0d3d 6f3d 86bc
00000340: 6189 a33d 9397 eebc 0652 c6bc 8413 38bd
00000350: 948a 12bd af40 123d 8078 923c 228b b1bd
00000360: b437 aebd a605 1d3c 48d0 8b3d 454d f5bb
00000370: c9b5 8abd bed0 3b3d e4b6 75bd a201 873c
00000380: f0fc 563d 594e 47bd 1c35 6abd 33d8 983d
00000390: c0d7 25bc 2f7f 023d 556f 4b3d 5d49 81bd
000003a0: 90a7 24bd 2ee1 f6bc 4531 8d3d f4bc 93bc
000003b0: fa01 55bd b19a 92bd 0920 213d 1000 143c
000003c0: 5b8a 3c3c d4a9 2abc 6684 a1bd 5147 9dbd
000003d0: 30db 71bd 09b7 4b3d 793c d43c b0b1 5ebc
000003e0: fc13 42bd 6cc5 83bd 1d77 7f3d d3ed 0cbb
000003f0: 96bc 9c3d a3f9 12bc 3b7e 0d3d bc63 1ebd
0.049035676 -0.06097667 0.08257936 -0.03233245 0.03063412 0.08028373 -0.0072764424 0.036487423
0.027087074 0.059807863 -0.04817923 -0.046767406 -0.06530513 -0.06250421 0.020442529 0.06989997
-0.0109995585 -0.060728908 -0.038569413 0.034787092 0.009274235 0.046335306 0.0025545415 -0.07311436
0.07032069 -0.08713207 0.009946151 0.06812587 0.037063 -0.01107773 -0.05454211 0.012325867
0.060058184 0.067624524 0.025551885 0.06278114 -0.02204082 -0.06279735 0.025356166 0.019354306
0.0868932 0.086267136 -0.05013905 -0.008178427 0.0344278 -0.04521796 0.0375538 0.042125765
0.0622268 0.04251911 0.03560415 -0.018325703 0.07977132 0.08287695 0.013648877 0.08357979
0.053856466 -0.0819997 0.016853038 0.0656204 0.008199416 0.055846438 -0.021137044 0.05991642
-0.022966228 0.00891566 -0.05764123 0.021300722 -0.026139729 -0.082417764 -0.06387826 -0.013363848
-0.06275026 0.036214404 -0.08161502 0.079083994 -0.0032023385 0.019770253 0.024803303 0.039610893
-0.06689225 -0.039650533 0.01543741 -0.058636297 -0.040718533 -0.023802284 -0.015615713 -0.029102873
0.06005788 0.014670654 0.012249349 -0.07538041 -0.02087723 0.042903278 0.042420864 -0.03218565
-0.08544979 -0.030104578 0.03645205 -0.072150484 0.05372132 0.0381084 0.07806171 0.004927609
0.023662051 -0.06515868 0.001986992 0.0416402 0.029184531 0.07510644 0.0017548894 0.046227306
0.005321851 0.05283827 0.044255245 0.028830204 0.03796683 0.07424675 -0.016915258 -0.022583883
-0.00522328 0.052582838 0.0701734 0.015812486 -0.023986267 -0.062531315 -0.038758833 -0.074346386
0.08836055 -0.012531132 0.07171382 -0.0028626772 0.003457074 -0.080367096 -0.070248164 0.045235083
-0.00076890603 -0.015603058 0.06999448 -0.06132737 0.021939352 -0.0037129791 0.0009082224 0.01661177
0.0056255716 -0.05376157 0.05178852 0.06425604 0.037803445 0.066228576 0.018655617 -0.0044247024
0.028896827 -0.015069553 0.060881037 0.009139207 0.078738675 -0.034956258 -0.025243623 0.08451569
0.07703748 0.06634767 0.014135115 0.014837271 -0.050488964 0.033006735 -0.06855168 -0.0046926197
0.05439154 0.03131652 -0.049262162 -0.07066645 -0.008875799 -0.071733885 -0.059467874 -0.025876457
0.0700567 0.08162128 0.05565088 0.008897358 0.015245337 -0.055545352 0.047005907 0.008483739
0.053253185 0.0066294675 -0.07062851 0.02625719 -0.00800257 -0.0011257634 -0.016861659 -0.07427773
-0.08160534 0.004947376 0.068085454 0.04355982 0.003113767 -0.041379754 -0.03133104 0.083816126
-0.046143644 0.06455069 -0.061791524 0.04654112 -0.004821652 0.064785205 0.03464473 -0.016386716
0.07985187 -0.02912501 -0.024209034 -0.044940487 -0.03577669 0.03570622 0.017879725 -0.086691156
-0.08506718 0.009583866 0.06826836 -0.007486018 -0.06772954 0.04585337 -0.05998887 0.01648027
0.052487314 -0.048658703 -0.057179555 0.07463112 -0.01012224 0.031859573 0.04966672 -0.06312821
-0.040198863 -0.03013667 0.06894163 -0.018034436 -0.052003838 -0.07158411 0.03933719 0.009033218
0.011507596 -0.010416467 -0.07886581 -0.07679618 -0.059046924 0.049735103 0.025907742 -0.013592169
-0.04738234 -0.064341396 0.062369455 -0.002150406 0.076531574 -0.008970651 0.03454421 -0.038669333

bn2.weight f4 [256]
00000000: 0000 803f 0000 803f 0000 803f 0000 803f
00000010: 0000 803f 0000 803f 0000 803f 0000 803f
00000020: 0000 803f 0000 803f 0000 803f 0000 803f
00000030: 0000 803f 0000 803f 0000 803f 0000 803f
00000040: 0000 803f 0000 803f 0000 803f 0000 803f
00000050: 0000 803f 0000 803f 0000 803f 0000 803f
00000060: 0000 803f 0000 803f 0000 803f 0000 803f
00000070: 0000 803f 0000 803f 0000 803f 0000 803f
00000080: 0000 803f 0000 803f 0000 803f 0000 803f
00000090: 0000 803f 0000 803f 0000 803f 0000 803f
000000a0: 0000 803f 0000 803f 0000 803f 0000 803f
000000b0: 0000 803f 0000 803f 0000 803f 0000 803f
000000c0: 0000 803f 0000 803f 0000 803f 0000 803f
000000d0: 0000 803f 0000 803f 0000 803f 0000 803f
000000e0: 0000 803f 0000 803f 0000 803f 0000 803f
000000f0: 0000 803f 0000 803f 0000 803f 0000 803f
00000100: 0000 803f 0000 803f 0000 803f 0000 803f
00000110: 0000 803f 0000 803f 0000 803f 0000 803f
00000120: 0000 803f 0000 803f 0000 803f 0000 803f
00000130: 0000 803f 0000 803f 0000 803f 0000 803f
00000140: 0000 803f 0000 803f 0000 803f 0000 803f
00000150: 0000 803f 0000 803f 0000 803f 0000 803f
00000160: 0000 803f 0000 803f 0000 803f 0000 803f
00000170: 0000 803f 0000 803f 0000 803f 0000 803f
00000180: 0000 803f 0000 803f 0000 803f 0000 803f
00000190: 0000 803f 0000 803f 0000 803f 0000 803f
000001a0: 0000 803f 0000 803f 0000 803f 0000 803f
000001b0: 0000 803f 0000 803f 0000 803f 0000 803f
000001c0: 0000 803f 0000 803f 0000 803f 0000 803f
000001d0: 0000 803f 0000 803f 0000 803f 0000 803f
000001e0: 0000 803f 0000 803f 0000 803f 0000 803f
000001f0: 0000 803f 0000 803f 0000 803f 0000 803f
00000200: 0000 803f 0000 803f 0000 803f 0000 803f
00000210: 0000 803f 0000 803f 0000 803f 0000 803f
00000220: 0000 803f 0000 803f 0000 803f 0000 803f
00000230: 0000 803f 0000 803f 0000 803f 0000 803f
00000240: 0000 803f 0000 803f 0000 803f 0000 803f
00000250: 0000 803f 0000 803f 0000 803f 0000 803f
00000260: 0000 803f 0000 803f 0000 803f 0000 803f
00000270: 0000 803f 0000 803f 0000 803f 0000 803f
00000280: 0000 803f 0000 803f 0000 803f 0000 803f
00000290: 0000 803f 0000 803f 0000 803f 0000 803f
000002a0: 0000 803f 0000 803f 0000 803f 0000 803f
000002b0: 0000 803f 0000 803f 0000 803f 0000 803f
000002c0: 0000 803f 0000 803f 0000 803f 0000 803f
000002d0: 0000 803f 0000 803f 0000 803f 0000 803f
000002e0: 0000 803f 0000 803f 0000 803f 0000 803f
000002f0: 0000 803f 0000 803f 0000 803f 0000 803f
00000300: 0000 803f 0000 803f 0000 803f 0000 803f
00000310: 0000 803f 0000 803f 0000 803f 0000 803f
00000320: 0000 803f 0000 803f 0000 803f 0000 803f
00000330: 0000 803f 0000 803f 0000 803f 0000 803f
00000340: 0000 803f 0000 803f 0000 803f 0000 803f
00000350: 0000 803f 0000 803f 0000 803f 0000 803f
00000360: 0000 803f 0000 803f 0000 803f 0000 803f
00000370: 0000 803f 0000 803f 0000 803f 0000 803f
00000380: 0000 803f 0000 803f 0000 803f 0000 803f
00000390: 0000 803f 0000 803f 0000 803f 0000 803f
000003a0: 0000 803f 0000 803f 0000 803f 0000 803f
000003b0: 0000 803f 0000 803f 0000 803f 0000 803f
000003c0: 0000 803f 0000 803f 0000 803f 0000 803f
000003d0: 0000 803f 0000 803f 0000 803f 0000 803f
000003e0: 0000 803f 0000 803f 0000 803f 0000 803f
000003f0: 0000 803f 0000 803f 0000 803f 0000 803f
1.0 1.0 1.0 1.0 1.0 1.0 1.0 1.0
1.0 1.0 1.0 1.0 1.0 1.0 1.0 1.0
1.0 1.0 1.0 1.0 1.0 1.0 1.0 1.0
1.0 1.0 1.0 1.0 1.0 1.0 1.0 1.0
1.0 1.0 1.0 1.0 1.0 1.0 1.0 1.0
1.0 1.0 1.0 1.0 1.0 1.0 1.0 1.0
1.0 1.0 1.0 1.0 1.0 1.0 1.0 1.0
1.0 1.0 1.0 1.0 1.0 1.0 1.0 1.0
1.0 1.0 1.0 1.0 1.0 1.0 1.0 1.0
1.0 1.0 1.0 1.0 1.0 1.0 1.0 1.0
1.0 1.0 1.0 1.0 1.0 1.0 1.0 1.0
1.0 1.0 1.0 1.0 1.0 1.0 1.0 1.0
1.0 1.0 1.0 1.0 1.0 1.0 1.0 1.0
1.0 1.0 1.0 1.0 1.0 1.0 1.0 1.0
1.0 1.0 1.0 1.0 1.0 1.0 1.0 1.0
1.0 1.0 1.0 1.0 1.0 1.0 1.0 1.0
1.0 1.0 1.0 1.0 1.0 1.0 1.0 1.0
1.0 1.0 1.0 1.0 1.0 1.0 1.0 1.0
1.0 1.0 1.0 1.0 1.0 1.0 1.0 1.0
1.0 1.0 1.0 1.0 1.0 1.0 1.0 1.0
1.0 1.0 1.0 1.0 1.0 1.0 1.0 1.0
1.0 1.0 1.0 1.0 1.0 1.0 1.0 1.0
1.0 1.0 1.0 1.0 1.0 1.0 1.0 1.0
1.0 1.0 1.0 1.0 1.0 1.0 1.0 1.0
1.0 1.0 1.0 1.0 1.0 1.0 1.0 1.0
1.0 1.0 1.0 1.0 1.0 1.0 1.0 1.0
1.0 1.0 1.0 1.0 1.0 1.0 1.0 1.0
1.0 1.0 1.0 1.0 1.0 1.0 1.0 1.0
1.0 1.0 1.0 1.0 1.0 1.0 1.0 1.0
1.0 1.0 1.0 1.0 1.0 1.0 1.0 1.0
1.0 1.0 1.0 1.0 1.0 1.0 1.0 1.0
1.0 1.0 1.0 1.0 1.0 1.0 1.0 1.0

bn2.bias f4 [256]
00000000: 0000 0000 0000 0000 0000 0000 0000 0000
00000010: 0000 0000 0000 0000 0000 0000 0000 0000
00000020: 0000 0000 0000 0000 0000 0000 0000 0000
00000030: 0000 0000 0000 0000 0000 0000 0000 0000
00000040: 0000 0000 0000 0000 0000 0000 0000 0000
00000050: 0000 0000 0000 0000 0000 0000 0000 0000
00000060: 0000 0000 0000 0000 0000 0000 0000 0000
00000070: 0000 0000 0000 0000 0000 0000 0000 0000
00000080: 0000 0000 0000 0000 0000 0000 0000 0000
00000090: 0000 0000 0000 0000 0000 0000 0000 0000
000000a0: 0000 0000 0000 0000 0000 0000 0000 0000
000000b0: 0000 0000 0000 0000 0000 0000 0000 0000
000000c0: 0000 0000 0000 0000 0000 0000 0000 0000
000000d0: 0000 0000 0000 0000 0000 0000 0000 0000
000000e0: 0000 0000 0000 0000 0000 0000 0000 0000
000000f0: 0000 0000 0000 0000 0000 0000 0000 0000
00000100: 0000 0000 0000 0000 0000 0000 0000 0000
00000110: 0000 0000 0000 0000 0000 0000 0000 0000
00000120: 0000 0000 0000 0000 0000 0000 0000 0000
00000130: 0000 0000 0000 0000 0000 0000 0000 0000
00000140: 0000 0000 0000 0000 0000 0000 0000 0000
00000150: 0000 0000 0000 0000 0000 0000 0000 0000
00000160: 0000 0000 0000 0000 0000 0000 0000 0000
00000170: 0000 0000 0000 0000 0000 0000 0000 0000
00000180: 0000 0000 0000 0000 0000 0000 0000 0000
00000190: 0000 0000 0000 0000 0000 0000 0000 0000
000001a0: 0000 0000 0000 0000 0000 0000 0000 0000
000001b0: 0000 0000 0000 0000 0000 0000 0000 0000
000001c0: 0000 0000 0000 0000 0000 0000 0000 0000
000001d0: 0000 0000 0000 0000 0000 0000 0000 0000
000001e0: 0000 0000 0000 0000 0000 0000 0000 0000
000001f0: 0000 0000 0000 0000 0000 0000 0000 0000
00000200: 0000 0000 0000 0000 0000 0000 0000 0000
00000210: 0000 0000 0000 0000 0000 0000 0000 0000
00000220: 0000 0000 0000 0000 0000 0000 0000 0000
00000230: 0000 0000 0000 0000 0000 0000 0000 0000
00000240: 0000 0000 0000 0000 0000 0000 0000 0000
00000250: 0000 0000 0000 0000 0000 0000 0000 0000
00000260: 0000 0000 0000 0000 0000 0000 0000 0000
00000270: 0000 0000 0000 0000 0000 0000 0000 0000
00000280: 0000 0000 0000 0000 0000 0000 0000 0000
00000290: 0000 0000 0000 0000 0000 0000 0000 0000
000002a0: 0000 0000 0000 0000 0000 0000 0000 0000
000002b0: 0000 0000 0000 0000 0000 0000 0000 0000
000002c0: 0000 0000 0000 0000 0000 0000 0000 0000
000002d0: 0000 0000 0000 0000 0000 0000 0000 0000
000002e0: 0000 0000 0000 0000 0000 0000 0000 0000
000002f0: 0000 0000 0000 0000 0000 0000 0000 0000
00000300: 0000 0000 0000 0000 0000 0000 0000 0000
00000310: 0000 0000 0000 0000 0000 0000 0000 0000
00000320: 0000 0000 0000 0000 0000 0000 0000 0000
00000330: 0000 0000 0000 0000 0000 0000 0000 0000
00000340: 0000 0000 0000 0000 0000 0000 0000 0000
00000350: 0000 0000 0000 0000 0000 0000 0000 0000
00000360: 0000 0000 0000 0000 0000 0000 0000 0000
00000370: 0000 0000 0000 0000 0000 0000 0000 0000
00000380: 0000 0000 0000 0000 0000 0000 0000 0000
00000390: 0000 0000 0000 0000 0000 0000 0000 0000
000003a0: 0000 0000 0000 0000 0000 0000 0000 0000
000003b0: 0000 0000 0000 0000 0000 0000 0000 0000
000003c0: 0000 0000 0000 0000 0000 0000 0000 0000
000003d0: 0000 0000 0000 0000 0000 0000 0000 0000
000003e0: 0000 0000 0000 0000 0000 0000 0000 0000
000003f0: 0000 0000 0000 0000 0000 0000 0000 0000
0.0 0.0 0.0 0.0 0.0 0.0 0.0 0.0
0.0 0.0 0.0 0.0 0.0 0.0 0.0 0.0
0.0 0.0 0.0 0.0 0.0 0.0 0.0 0.0
0.0 0.0 0.0 0.0 0.0 0.0 0.0 0.0
0.0 0.0 0.0 0.0 0.0 0.0 0.0 0.0
0.0 0.0 0.0 0.0 0.0 0.0 0.0 0.0
0.0 0.0 0.0 0.0 0.0 0.0 0.0 0.0
0.0 0.0 0.0 0.0 0.0 0.0 0.0 0.0
0.0 0.0 0.0 0.0 0.0 0.0 0.0 0.0
0.0 0.0 0.0 0.0 0.0 0.0 0.0 0.0
0.0 0.0 0.0 0.0 0.0 0.0 0.0 0.0
0.0 0.0 0.0 0.0 0.0 0.0 0.0 0.0
0.0 0.0 0.0 0.0 0.0 0.0 0.0 0.0
0.0 0.0 0.0 0.0 0.0 0.0 0.0 0.0
0.0 0.0 0.0 0.0 0.0 0.0 0.0 0.0
0.0 0.0 0.0 0.0 0.0 0.0 0.0 0.0
0.0 0.0 0.0 0.0 0.0 0.0 0.0 0.0
0.0 0.0 0.0 0.0 0.0 0.0 0.0 0.0
0.0 0.0 0.0 0.0 0.0 0.0 0.0 0.0
0.0 0.0 0.0 0.0 0.0 0.0 0.0 0.0
0.0 0.0 0.0 0.0 0.0 0.0 0.0 0.0
0.0 0.0 0.0 0.0 0.0 0.0 0.0 0.0
0.0 0.0 0.0 0.0 0.0 0.0 0.0 0.0
0.0 0.0 0.0 0.0 0.0 0.0 0.0 0.0
0.0 0.0 0.0 0.0 0.0 0.0 0.0 0.0
0.0 0.0 0.0 0.0 0.0 0.0 0.0 0.0
0.0 0.0 0.0 0.0 0.0 0.0 0.0 0.0
0.0 0.0 0.0 0.0 0.0 0.0 0.0 0.0
0.0 0.0 0.0 0.0 0.0 0.0 0.0 0.0
0.0 0.0 0.0 0.0 0.0 0.0 0.0 0.0
0.0 0.0 0.0 0.0 0.0 0.0 0.0 0.0
0.0 0.0 0.0 0.0 0.0 0.0 0.0 0.0

bn2.running_mean f4 [256]
00000000: 0000 0000 0000 0000 0000 0000 0000 0000
00000010: 0000 0000 0000 0000 0000 0000 0000 0000
00000020: 0000 0000 0000 0000 0000 0000 0000 0000
00000030: 0000 0000 0000 0000 0000 0000 0000 0000
00000040: 0000 0000 0000 0000 0000 0000 0000 0000
00000050: 0000 0000 0000 0000 0000 0000 0000 0000
00000060: 0000 0000 0000 0000 0000 0000 0000 0000
00000070: 0000 0000 0000 0000 0000 0000 0000 0000
00000080: 0000 0000 0000 0000 0000 0000 0000 0000
00000090: 0000 0000 0000 0000 0000 0000 0000 0000
000000a0: 0000 0000 0000 0000 0000 0000 0000 0000
000000b0: 0000 0000 0000 0000 0000 0000 0000 0000
000000c0: 0000 0000 0000 0000 0000 0000 0000 0000
000000d0: 0000 0000 0000 0000 0000 0000 0000 0000
000000e0: 0000 0000 0000 0000 0000 0000 0000 0000
000000f0: 0000 0000 0000 0000 0000 0000 0000 0000
00000100: 0000 0000 0000 0000 0000 0000 0000 0000
00000110: 0000 0000 0000 0000 0000 0000 0000 0000
00000120: 0000 0000 0000 0000 0000 0000 0000 0000
00000130: 0000 0000 0000 0000 0000 0000 0000 0000
00000140: 0000 0000 0000 0000 0000 0000 0000 0000
00000150: 0000 0000 0000 0000 0000 0000 0000 0000
00000160: 0000 0000 0000 0000 0000 0000 0000 0000
00000170: 0000 0000 0000 0000 0000 0000 0000 0000
00000180: 0000 0000 0000 0000 0000 0000 0000 0000
00000190: 0000 0000 0000 0000 0000 0000 0000 0000
000001a0: 0000 0000 0000 0000 0000 0000 0000 0000
000001b0: 0000 0000 0000 0000 0000 0000 0000 0000
000001c0: 0000 0000 0000 0000 0000 0000 0000 0000
000001d0: 0000 0000 0000 0000 0000 0000 0000 0000
000001e0: 0000 0000 0000 0000 0000 0000 0000 0000
000001f0: 0000 0000 0000 0000 0000 0000 0000 0000
00000200: 0000 0000 0000 0000 0000 0000 0000 0000
00000210: 0000 0000 0000 0000 0000 0000 0000 0000
00000220: 0000 0000 0000 0000 0000 0000 0000 0000
00000230: 0000 0000 0000 0000 0000 0000 0000 0000
00000240: 0000 0000 0000 0000 0000 0000 0000 0000
00000250: 0000 0000 0000 0000 0000 0000 0000 0000
00000260: 0000 0000 0000 0000 0000 0000 0000 0000
00000270: 0000 0000 0000 0000 0000 0000 0000 0000
00000280: 0000 0000 0000 0000 0000 0000 0000 0000
00000290: 0000 0000 0000 0000 0000 0000 0000 0000
000002a0: 0000 0000 0000 0000 0000 0000 0000 0000
000002b0: 0000 0000 0000 0000 0000 0000 0000 0000
000002c0: 0000 0000 0000 0000 0000 0000 0000 0000
000002d0: 0000 0000 0000 0000 0000 0000 0000 0000
000002e0: 0000 0000 0000 0000 0000 0000 0000 0000
000002f0: 0000 0000 0000 0000 0000 0000 0000 0000
00000300: 0000 0000 0000 0000 0000 0000 0000 0000
00000310: 0000 0000 0000 0000 0000 0000 0000 0000
00000320: 0000 0000 0000 0000 0000 0000 0000 0000
00000330: 0000 0000 0000 0000 0000 0000 0000 0000
00000340: 0000 0000 0000 0000 0000 0000 0000 0000
00000350: 0000 0000 0000 0000 0000 0000 0000 0000
00000360: 0000 0000 0000 0000 0000 0000 0000 0000
00000370: 0000 0000 0000 0000 0000 0000 0000 0000
00000380: 0000 0000 0000 0000 0000 0000 0000 0000
00000390: 0000 0000 0000 0000 0000 0000 0000 0000
000003a0: 0000 0000 0000 0000 0000 0000 0000 0000
000003b0: 0000 0000 0000 0000 0000 0000 0000 0000
000003c0: 0000 0000 0000 0000 0000 0000 0000 0000
000003d0: 0000 0000 0000 0000 0000 0000 0000 0000
000003e0: 0000 0000 0000 0000 0000 0000 0000 0000
000003f0: 0000 0000 0000 0000 0000 0000 0000 0000
0.0 0.0 0.0 0.0 0.0 0.0 0.0 0.0
0.0 0.0 0.0 0.0 0.0 0.0 0.0 0.0
0.0 0.0 0.0 0.0 0.0 0.0 0.0 0.0
0.0 0.0 0.0 0.0 0.0 0.0 0.0 0.0
0.0 0.0 0.0 0.0 0.0 0.0 0.0 0.0
0.0 0.0 0.0 0.0 0.0 0.0 0.0 0.0
0.0 0.0 0.0 0.0 0.0 0.0 0.0 0.0
0.0 0.0 0.0 0.0 0.0 0.0 0.0 0.0
0.0 0.0 0.0 0.0 0.0 0.0 0.0 0.0
0.0 0.0 0.0 0.0 0.0 0.0 0.0 0.0
0.0 0.0 0.0 0.0 0.0 0.0 0.0 0.0
0.0 0.0 0.0 0.0 0.0 0.0 0.0 0.0
0.0 0.0 0.0 0.0 0.0 0.0 0.0 0.0
0.0 0.0 0.0 0.0 0.0 0.0 0.0 0.0
0.0 0.0 0.0 0.0 0.0 0.0 0.0 0.0
0.0 0.0 0.0 0.0 0.0 0.0 0.0 0.0
0.0 0.0 0.0 0.0 0.0 0.0 0.0 0.0
0.0 0.0 0.0 0.0 0.0 0.0 0.0 0.0
0.0 0.0 0.0 0.0 0.0 0.0 0.0 0.0
0.0 0.0 0.0 0.0 0.0 0.0 0.0 0.0
0.0 0.0 0.0 0.0 0.0 0.0 0.0 0.0
0.0 0.0 0.0 0.0 0.0 0.0 0.0 0.0
0.0 0.0 0.0 0.0 0.0 0.0 0.0 0.0
0.0 0.0 0.0 0.0 0.0 0.0 0.0 0.0
0.0 0.0 0.0 0.0 0.0 0.0 0.0 0.0
0.0 0.0 0.0 0.0 0.0 0.0 0.0 0.0
0.0 0.0 0.0 0.0 0.0 0.0 0.0 0.0
0.0 0.0 0.0 0.0 0.0 0.0 0.0 0.0
0.0 0.0 0.0 0.0 0.0 0.0 0.0 0.0
0.0 0.0 0.0 0.0 0.0 0.0 0.0 0.0
0.0 0.0 0.0 0.0 0.0 0.0 0.0 0.0
0.0 0.0 0.0 0.0 0.0 0.0 0.0 0.0
